tanh_model1.pt (torch, 5622 bytes, 13 tensors)

hidden1_linear.weight f4 [4, 5]
00000000: 6030 723e 0ce0 e4bd ad96 c2be a08b e13c
00000010: 6a6a d53e c441 4cbe 3215 15be 1810 b33e
00000020: 88e2 7ebd b6e7 2ebe a479 b8bd 2028 863c
00000030: ac89 babe 18e0 02be 3e06 de3e 6057 c4bd
00000040: f28d d03e 06c8 32be c833 38be d47f 08be
0.23651266 -0.11175546 -0.38005581 0.027532399 0.4168275 -0.19946963 -0.14558867 0.34973216
-0.062227756 -0.17080578 -0.09007576 0.016376555 -0.3643316 -0.12780797 0.43364137 -0.09586978
0.40733296 -0.17459115 -0.17988503 -0.13330013

hidden1_linear.bias f4 [4]
00000000: 22bb ccbe 7eea 89be 8461 8a3e 77c6 abbe
-0.3998652 -0.26936716 0.27027524 -0.33549854

hidden1_bn1d.weight f4 [4]
00000000: 0000 803f 0000 803f 0000 803f 0000 803f
1.0 1.0 1.0 1.0

hidden1_bn1d.bias f4 [4]
00000000: 0000 0000 0000 0000 0000 0000 0000 0000
0.0 0.0 0.0 0.0

hidden1_bn1d.running_mean f4 [4]
00000000: 0000 0000 0000 0000 0000 0000 0000 0000
0.0 0.0 0.0 0.0

hidden1_bn1d.running_var f4 [4]
00000000: 0000 803f 0000 803f 0000 803f 0000 803f
1.0 1.0 1.0 1.0

hidden2_linear.weight f4 [4, 4]
00000000: 64e6 2e3e 46dd f03e 9820 82bd 7cfb 5f3e
00000010: 7028 6f3e 00bd b6be 086c 45be d057 20be
00000020: be07 f73e be7d e4be 02f5 9a3e 7870 f03e
00000030: 6e68 ca3e 1835 5a3e 84ed 633e e065 dabc
0.17080075 0.47043818 -0.06353873 0.21873277 0.2335527 -0.3569107 -0.19279492 -0.15658498
0.48248094 -0.44627184 0.3026505 0.46960807 0.395328 0.21309316 0.22258574 -0.026659906

hidden2_linear.bias f4 [4]
00000000: 0ccd 803e 5c5a e93e fca2 24be ec5a f73e
0.25156438 0.4557675 -0.16077799 0.48311555

hidden2_bn1d.weight f4 [4]
00000000: 0000 803f 0000 803f 0000 803f 0000 803f
1.0 1.0 1.0 1.0

hidden2_bn1d.bias f4 [4]
00000000: 0000 0000 0000 0000 0000 0000 0000 0000
0.0 0.0 0.0 0.0

hidden2_bn1d.running_mean f4 [4]
00000000: 0000 0000 0000 0000 0000 0000 0000 0000
0.0 0.0 0.0 0.0

hidden2_bn1d.running_var f4 [4]
00000000: 0000 803f 0000 803f 0000 803f 0000 803f
1.0 1.0 1.0 1.0

output_linear.weight f4 [1, 4]
00000000: 78bd a23d 4e8e b3be 6cbb b7be 8c96 343e
0.079462945 -0.35069507 -0.3588518 0.17635554
